[2022-04-24 14:06:41] INFO (timm.models.helpers/MainThread) Loading pretrained weights from url (https://github.com/rwightman/pytorch-image-models/releases/download/v0.1-weights/efficientnet_lite0_ra-37913777.pth)
Model Structure...
EfficientNet(
  (conv_stem): Conv2d(3, 32, kernel_size=(3, 3), stride=(2, 2), padding=(1, 1), bias=False)
  (bn1): BatchNorm2d(32, eps=1e-05, momentum=0.1, affine=True, track_running_stats=True)
  (act1): ReLU6(inplace=True)
  (blocks): Sequential(
    (0): Sequential(
      (0): DepthwiseSeparableConv(
        (conv_dw): Conv2d(32, 32, kernel_size=(3, 3), stride=(1, 1), padding=(1, 1), groups=32, bias=False)
        (bn1): BatchNorm2d(32, eps=1e-05, momentum=0.1, affine=True, track_running_stats=True)
        (act1): ReLU6(inplace=True)
        (se): Identity()
        (conv_pw): Conv2d(32, 16, kernel_size=(1, 1), stride=(1, 1), bias=False)
        (bn2): BatchNorm2d(16, eps=1e-05, momentum=0.1, affine=True, track_running_stats=True)
        (act2): Identity()
      )
    )
    (1): Sequential(
      (0): InvertedResidual(
        (conv_pw): Conv2d(16, 96, kernel_size=(1, 1), stride=(1, 1), bias=False)
        (bn1): BatchNorm2d(96, eps=1e-05, momentum=0.1, affine=True, track_running_stats=True)
        (act1): ReLU6(inplace=True)
        (conv_dw): Conv2d(96, 96, kernel_size=(3, 3), stride=(2, 2), padding=(1, 1), groups=96, bias=False)
        (bn2): BatchNorm2d(96, eps=1e-05, momentum=0.1, affine=True, track_running_stats=True)
        (act2): ReLU6(inplace=True)
        (se): Identity()
        (conv_pwl): Conv2d(96, 24, kernel_size=(1, 1), stride=(1, 1), bias=False)
        (bn3): BatchNorm2d(24, eps=1e-05, momentum=0.1, affine=True, track_running_stats=True)
      )
      (1): InvertedResidual(
        (conv_pw): Conv2d(24, 144, kernel_size=(1, 1), stride=(1, 1), bias=False)
        (bn1): BatchNorm2d(144, eps=1e-05, momentum=0.1, affine=True, track_running_stats=True)
        (act1): ReLU6(inplace=True)
        (conv_dw): Conv2d(144, 144, kernel_size=(3, 3), stride=(1, 1), padding=(1, 1), groups=144, bias=False)
        (bn2): BatchNorm2d(144, eps=1e-05, momentum=0.1, affine=True, track_running_stats=True)
        (act2): ReLU6(inplace=True)
        (se): Identity()
        (conv_pwl): Conv2d(144, 24, kernel_size=(1, 1), stride=(1, 1), bias=False)
        (bn3): BatchNorm2d(24, eps=1e-05, momentum=0.1, affine=True, track_running_stats=True)
      )
    )
    (2): Sequential(
      (0): InvertedResidual(
        (conv_pw): Conv2d(24, 144, kernel_size=(1, 1), stride=(1, 1), bias=False)
        (bn1): BatchNorm2d(144, eps=1e-05, momentum=0.1, affine=True, track_running_stats=True)
        (act1): ReLU6(inplace=True)
        (conv_dw): Conv2d(144, 144, kernel_size=(5, 5), stride=(2, 2), padding=(2, 2), groups=144, bias=False)
        (bn2): BatchNorm2d(144, eps=1e-05, momentum=0.1, affine=True, track_running_stats=True)
        (act2): ReLU6(inplace=True)
        (se): Identity()
        (conv_pwl): Conv2d(144, 40, kernel_size=(1, 1), stride=(1, 1), bias=False)
        (bn3): BatchNorm2d(40, eps=1e-05, momentum=0.1, affine=True, track_running_stats=True)
      )
      (1): InvertedResidual(
        (conv_pw): Conv2d(40, 240, kernel_size=(1, 1), stride=(1, 1), bias=False)
        (bn1): BatchNorm2d(240, eps=1e-05, momentum=0.1, affine=True, track_running_stats=True)
        (act1): ReLU6(inplace=True)
        (conv_dw): Conv2d(240, 240, kernel_size=(5, 5), stride=(1, 1), padding=(2, 2), groups=240, bias=False)
        (bn2): BatchNorm2d(240, eps=1e-05, momentum=0.1, affine=True, track_running_stats=True)
        (act2): ReLU6(inplace=True)
        (se): Identity()
        (conv_pwl): Conv2d(240, 40, kernel_size=(1, 1), stride=(1, 1), bias=False)
        (bn3): BatchNorm2d(40, eps=1e-05, momentum=0.1, affine=True, track_running_stats=True)
      )
    )
    (3): Sequential(
      (0): InvertedResidual(
        (conv_pw): Conv2d(40, 240, kernel_size=(1, 1), stride=(1, 1), bias=False)
        (bn1): BatchNorm2d(240, eps=1e-05, momentum=0.1, affine=True, track_running_stats=True)
        (act1): ReLU6(inplace=True)
        (conv_dw): Conv2d(240, 240, kernel_size=(3, 3), stride=(2, 2), padding=(1, 1), groups=240, bias=False)
        (bn2): BatchNorm2d(240, eps=1e-05, momentum=0.1, affine=True, track_running_stats=True)
        (act2): ReLU6(inplace=True)
        (se): Identity()
        (conv_pwl): Conv2d(240, 80, kernel_size=(1, 1), stride=(1, 1), bias=False)
        (bn3): BatchNorm2d(80, eps=1e-05, momentum=0.1, affine=True, track_running_stats=True)
      )
      (1): InvertedResidual(
        (conv_pw): Conv2d(80, 480, kernel_size=(1, 1), stride=(1, 1), bias=False)
        (bn1): BatchNorm2d(480, eps=1e-05, momentum=0.1, affine=True, track_running_stats=True)
        (act1): ReLU6(inplace=True)
        (conv_dw): Conv2d(480, 480, kernel_size=(3, 3), stride=(1, 1), padding=(1, 1), groups=480, bias=False)
        (bn2): BatchNorm2d(480, eps=1e-05, momentum=0.1, affine=True, track_running_stats=True)
        (act2): ReLU6(inplace=True)
        (se): Identity()
        (conv_pwl): Conv2d(480, 80, kernel_size=(1, 1), stride=(1, 1), bias=False)
        (bn3): BatchNorm2d(80, eps=1e-05, momentum=0.1, affine=True, track_running_stats=True)
      )
      (2): InvertedResidual(
        (conv_pw): Conv2d(80, 480, kernel_size=(1, 1), stride=(1, 1), bias=False)
        (bn1): BatchNorm2d(480, eps=1e-05, momentum=0.1, affine=True, track_running_stats=True)
        (act1): ReLU6(inplace=True)
        (conv_dw): Conv2d(480, 480, kernel_size=(3, 3), stride=(1, 1), padding=(1, 1), groups=480, bias=False)
        (bn2): BatchNorm2d(480, eps=1e-05, momentum=0.1, affine=True, track_running_stats=True)
        (act2): ReLU6(inplace=True)
        (se): Identity()
        (conv_pwl): Conv2d(480, 80, kernel_size=(1, 1), stride=(1, 1), bias=False)
        (bn3): BatchNorm2d(80, eps=1e-05, momentum=0.1, affine=True, track_running_stats=True)
      )
    )
    (4): Sequential(
      (0): InvertedResidual(
        (conv_pw): Conv2d(80, 480, kernel_size=(1, 1), stride=(1, 1), bias=False)
        (bn1): BatchNorm2d(480, eps=1e-05, momentum=0.1, affine=True, track_running_stats=True)
        (act1): ReLU6(inplace=True)
        (conv_dw): Conv2d(480, 480, kernel_size=(5, 5), stride=(1, 1), padding=(2, 2), groups=480, bias=False)
        (bn2): BatchNorm2d(480, eps=1e-05, momentum=0.1, affine=True, track_running_stats=True)
        (act2): ReLU6(inplace=True)
        (se): Identity()
        (conv_pwl): Conv2d(480, 112, kernel_size=(1, 1), stride=(1, 1), bias=False)
        (bn3): BatchNorm2d(112, eps=1e-05, momentum=0.1, affine=True, track_running_stats=True)
      )
      (1): InvertedResidual(
        (conv_pw): Conv2d(112, 672, kernel_size=(1, 1), stride=(1, 1), bias=False)
        (bn1): BatchNorm2d(672, eps=1e-05, momentum=0.1, affine=True, track_running_stats=True)
        (act1): ReLU6(inplace=True)
        (conv_dw): Conv2d(672, 672, kernel_size=(5, 5), stride=(1, 1), padding=(2, 2), groups=672, bias=False)
        (bn2): BatchNorm2d(672, eps=1e-05, momentum=0.1, affine=True, track_running_stats=True)
        (act2): ReLU6(inplace=True)
        (se): Identity()
        (conv_pwl): Conv2d(672, 112, kernel_size=(1, 1), stride=(1, 1), bias=False)
        (bn3): BatchNorm2d(112, eps=1e-05, momentum=0.1, affine=True, track_running_stats=True)
      )
      (2): InvertedResidual(
        (conv_pw): Conv2d(112, 672, kernel_size=(1, 1), stride=(1, 1), bias=False)
        (bn1): BatchNorm2d(672, eps=1e-05, momentum=0.1, affine=True, track_running_stats=True)
        (act1): ReLU6(inplace=True)
        (conv_dw): Conv2d(672, 672, kernel_size=(5, 5), stride=(1, 1), padding=(2, 2), groups=672, bias=False)
        (bn2): BatchNorm2d(672, eps=1e-05, momentum=0.1, affine=True, track_running_stats=True)
        (act2): ReLU6(inplace=True)
        (se): Identity()
        (conv_pwl): Conv2d(672, 112, kernel_size=(1, 1), stride=(1, 1), bias=False)
        (bn3): BatchNorm2d(112, eps=1e-05, momentum=0.1, affine=True, track_running_stats=True)
      )
    )
    (5): Sequential(
      (0): InvertedResidual(
        (conv_pw): Conv2d(112, 672, kernel_size=(1, 1), stride=(1, 1), bias=False)
        (bn1): BatchNorm2d(672, eps=1e-05, momentum=0.1, affine=True, track_running_stats=True)
        (act1): ReLU6(inplace=True)
        (conv_dw): Conv2d(672, 672, kernel_size=(5, 5), stride=(2, 2), padding=(2, 2), groups=672, bias=False)
        (bn2): BatchNorm2d(672, eps=1e-05, momentum=0.1, affine=True, track_running_stats=True)
        (act2): ReLU6(inplace=True)
        (se): Identity()
        (conv_pwl): Conv2d(672, 192, kernel_size=(1, 1), stride=(1, 1), bias=False)
        (bn3): BatchNorm2d(192, eps=1e-05, momentum=0.1, affine=True, track_running_stats=True)
      )
      (1): InvertedResidual(
        (conv_pw): Conv2d(192, 1152, kernel_size=(1, 1), stride=(1, 1), bias=False)
        (bn1): BatchNorm2d(1152, eps=1e-05, momentum=0.1, affine=True, track_running_stats=True)
        (act1): ReLU6(inplace=True)
        (conv_dw): Conv2d(1152, 1152, kernel_size=(5, 5), stride=(1, 1), padding=(2, 2), groups=1152, bias=False)
        (bn2): BatchNorm2d(1152, eps=1e-05, momentum=0.1, affine=True, track_running_stats=True)
        (act2): ReLU6(inplace=True)
        (se): Identity()
        (conv_pwl): Conv2d(1152, 192, kernel_size=(1, 1), stride=(1, 1), bias=False)
        (bn3): BatchNorm2d(192, eps=1e-05, momentum=0.1, affine=True, track_running_stats=True)
      )
      (2): InvertedResidual(
        (conv_pw): Conv2d(192, 1152, kernel_size=(1, 1), stride=(1, 1), bias=False)
        (bn1): BatchNorm2d(1152, eps=1e-05, momentum=0.1, affine=True, track_running_stats=True)
        (act1): ReLU6(inplace=True)
        (conv_dw): Conv2d(1152, 1152, kernel_size=(5, 5), stride=(1, 1), padding=(2, 2), groups=1152, bias=False)
        (bn2): BatchNorm2d(1152, eps=1e-05, momentum=0.1, affine=True, track_running_stats=True)
        (act2): ReLU6(inplace=True)
        (se): Identity()
        (conv_pwl): Conv2d(1152, 192, kernel_size=(1, 1), stride=(1, 1), bias=False)
        (bn3): BatchNorm2d(192, eps=1e-05, momentum=0.1, affine=True, track_running_stats=True)
      )
      (3): InvertedResidual(
        (conv_pw): Conv2d(192, 1152, kernel_size=(1, 1), stride=(1, 1), bias=False)
        (bn1): BatchNorm2d(1152, eps=1e-05, momentum=0.1, affine=True, track_running_stats=True)
        (act1): ReLU6(inplace=True)
        (conv_dw): Conv2d(1152, 1152, kernel_size=(5, 5), stride=(1, 1), padding=(2, 2), groups=1152, bias=False)
        (bn2): BatchNorm2d(1152, eps=1e-05, momentum=0.1, affine=True, track_running_stats=True)
        (act2): ReLU6(inplace=True)
        (se): Identity()
        (conv_pwl): Conv2d(1152, 192, kernel_size=(1, 1), stride=(1, 1), bias=False)
        (bn3): BatchNorm2d(192, eps=1e-05, momentum=0.1, affine=True, track_running_stats=True)
      )
    )
    (6): Sequential(
      (0): InvertedResidual(
        (conv_pw): Conv2d(192, 1152, kernel_size=(1, 1), stride=(1, 1), bias=False)
        (bn1): BatchNorm2d(1152, eps=1e-05, momentum=0.1, affine=True, track_running_stats=True)
        (act1): ReLU6(inplace=True)
        (conv_dw): Conv2d(1152, 1152, kernel_size=(3, 3), stride=(1, 1), padding=(1, 1), groups=1152, bias=False)
        (bn2): BatchNorm2d(1152, eps=1e-05, momentum=0.1, affine=True, track_running_stats=True)
        (act2): ReLU6(inplace=True)
        (se): Identity()
        (conv_pwl): Conv2d(1152, 320, kernel_size=(1, 1), stride=(1, 1), bias=False)
        (bn3): BatchNorm2d(320, eps=1e-05, momentum=0.1, affine=True, track_running_stats=True)
      )
    )
  )
  (conv_head): Conv2d(320, 1280, kernel_size=(1, 1), stride=(1, 1), bias=False)
  (bn2): BatchNorm2d(1280, eps=1e-05, momentum=0.1, affine=True, track_running_stats=True)
  (act2): ReLU6(inplace=True)
  (global_pool): SelectAdaptivePool2d (pool_type=avg, flatten=Flatten(start_dim=1, end_dim=-1))
  (classifier): Linear(in_features=1280, out_features=1000, bias=True)
)

Starting Pruning Process...

Config List: [{'sparsity_per_layer': 0.8, 'op_types': ['Linear', 'Conv2d']}, {'exclude': True, 'op_names': ['m.0']}]
[2022-04-24 14:06:41] WARNING (nni.algorithms.compression.v2.pytorch.pruning.basic_pruner/MainThread) op_names ['m.0'] not found in model
[2022-04-24 14:06:41] WARNING (nni.algorithms.compression.v2.pytorch.pruning.basic_pruner/MainThread) op_names ['m.0'] not found in model
…
